['classifier.py', 'std', '16', 'focus']
std
std
Model: "functional_1"
__________________________________________________________________________________________________
Layer (type)                    Output Shape         Param #     Connected to                     
==================================================================================================
input_1 (InputLayer)            [(None, 32, 32, 3)]  0                                            
__________________________________________________________________________________________________
conv2d (Conv2D)                 (None, 16, 16, 16)   448         input_1[0][0]                    
__________________________________________________________________________________________________
leaky_re_lu (LeakyReLU)         (None, 16, 16, 16)   0           conv2d[0][0]                     
__________________________________________________________________________________________________
dropout (Dropout)               (None, 16, 16, 16)   0           leaky_re_lu[0][0]                
__________________________________________________________________________________________________
batch_normalization (BatchNorma (None, 16, 16, 16)   64          dropout[0][0]                    
__________________________________________________________________________________________________
conv2d_1 (Conv2D)               (None, 8, 8, 32)     4640        batch_normalization[0][0]        
__________________________________________________________________________________________________
leaky_re_lu_1 (LeakyReLU)       (None, 8, 8, 32)     0           conv2d_1[0][0]                   
__________________________________________________________________________________________________
dropout_1 (Dropout)             (None, 8, 8, 32)     0           leaky_re_lu_1[0][0]              
__________________________________________________________________________________________________
batch_normalization_1 (BatchNor (None, 8, 8, 32)     128         dropout_1[0][0]                  
__________________________________________________________________________________________________
conv2d_2 (Conv2D)               (None, 4, 4, 32)     9248        batch_normalization_1[0][0]      
__________________________________________________________________________________________________
leaky_re_lu_2 (LeakyReLU)       (None, 4, 4, 32)     0           conv2d_2[0][0]                   
__________________________________________________________________________________________________
dropout_2 (Dropout)             (None, 4, 4, 32)     0           leaky_re_lu_2[0][0]              
__________________________________________________________________________________________________
batch_normalization_2 (BatchNor (None, 4, 4, 32)     128         dropout_2[0][0]                  
__________________________________________________________________________________________________
dense (Dense)                   (None, 4, 4, 4)      132         batch_normalization_2[0][0]      
__________________________________________________________________________________________________
reshape_1 (Reshape)             (None, 16, 4)        0           dense[0][0]                      
__________________________________________________________________________________________________
dense_1 (Dense)                 (None, 4, 4, 32)     1056        batch_normalization_2[0][0]      
__________________________________________________________________________________________________
softmax (Softmax)               (None, 16, 4)        0           reshape_1[0][0]                  
__________________________________________________________________________________________________
reshape_2 (Reshape)             (None, 16, 32)       0           dense_1[0][0]                    
__________________________________________________________________________________________________
dot (Dot)                       (None, 4, 32)        0           softmax[0][0]                    
                                                                 reshape_2[0][0]                  
__________________________________________________________________________________________________
reshape_3 (Reshape)             (None, 128)          0           dot[0][0]                        
__________________________________________________________________________________________________
flatten (Flatten)               (None, 128)          0           reshape_3[0][0]                  
__________________________________________________________________________________________________
dense_2 (Dense)                 (None, 256)          33024       flatten[0][0]                    
__________________________________________________________________________________________________
dropout_3 (Dropout)             (None, 256)          0           dense_2[0][0]                    
__________________________________________________________________________________________________
batch_normalization_4 (BatchNor (None, 256)          1024        dropout_3[0][0]                  
__________________________________________________________________________________________________
dense_3 (Dense)                 (None, 10)           2570        batch_normalization_4[0][0]      
==================================================================================================
Total params: 52,462
Trainable params: 51,790
Non-trainable params: 672
__________________________________________________________________________________________________
Epoch 1/100
1563/1563 [==============================] - 15s 9ms/step - loss: 2.1697 - accuracy: 0.2279 - val_loss: 1.7050 - val_accuracy: 0.3736
…
