['classifier.py', 'std', '64', 'focus']
std
std
Model: "functional_1"
__________________________________________________________________________________________________
Layer (type)                    Output Shape         Param #     Connected to                     
==================================================================================================
input_1 (InputLayer)            [(None, 32, 32, 3)]  0                                            
__________________________________________________________________________________________________
conv2d (Conv2D)                 (None, 16, 16, 64)   1792        input_1[0][0]                    
__________________________________________________________________________________________________
leaky_re_lu (LeakyReLU)         (None, 16, 16, 64)   0           conv2d[0][0]                     
__________________________________________________________________________________________________
dropout (Dropout)               (None, 16, 16, 64)   0           leaky_re_lu[0][0]                
__________________________________________________________________________________________________
batch_normalization (BatchNorma (None, 16, 16, 64)   256         dropout[0][0]                    
__________________________________________________________________________________________________
conv2d_1 (Conv2D)               (None, 8, 8, 128)    73856       batch_normalization[0][0]        
__________________________________________________________________________________________________
leaky_re_lu_1 (LeakyReLU)       (None, 8, 8, 128)    0           conv2d_1[0][0]                   
__________________________________________________________________________________________________
dropout_1 (Dropout)             (None, 8, 8, 128)    0           leaky_re_lu_1[0][0]              
__________________________________________________________________________________________________
batch_normalization_1 (BatchNor (None, 8, 8, 128)    512         dropout_1[0][0]                  
__________________________________________________________________________________________________
conv2d_2 (Conv2D)               (None, 4, 4, 128)    147584      batch_normalization_1[0][0]      
__________________________________________________________________________________________________
leaky_re_lu_2 (LeakyReLU)       (None, 4, 4, 128)    0           conv2d_2[0][0]                   
__________________________________________________________________________________________________
dropout_2 (Dropout)             (None, 4, 4, 128)    0           leaky_re_lu_2[0][0]              
__________________________________________________________________________________________________
batch_normalization_2 (BatchNor (None, 4, 4, 128)    512         dropout_2[0][0]                  
__________________________________________________________________________________________________
dense (Dense)                   (None, 4, 4, 4)      516         batch_normalization_2[0][0]      
__________________________________________________________________________________________________
reshape_1 (Reshape)             (None, 16, 4)        0           dense[0][0]                      
__________________________________________________________________________________________________
dense_1 (Dense)                 (None, 4, 4, 128)    16512       batch_normalization_2[0][0]      
__________________________________________________________________________________________________
softmax (Softmax)               (None, 16, 4)        0           reshape_1[0][0]                  
__________________________________________________________________________________________________
reshape_2 (Reshape)             (None, 16, 128)      0           dense_1[0][0]                    
__________________________________________________________________________________________________
dot (Dot)                       (None, 4, 128)       0           softmax[0][0]                    
                                                                 reshape_2[0][0]                  
__________________________________________________________________________________________________
reshape_3 (Reshape)             (None, 512)          0           dot[0][0]                        
__________________________________________________________________________________________________
flatten (Flatten)               (None, 512)          0           reshape_3[0][0]                  
__________________________________________________________________________________________________
dense_2 (Dense)                 (None, 256)          131328      flatten[0][0]                    
__________________________________________________________________________________________________
dropout_3 (Dropout)             (None, 256)          0           dense_2[0][0]                    
__________________________________________________________________________________________________
batch_normalization_4 (BatchNor (None, 256)          1024        dropout_3[0][0]                  
__________________________________________________________________________________________________
dense_3 (Dense)                 (None, 10)           2570        batch_normalization_4[0][0]      
==================================================================================================
Total params: 376,462
Trainable params: 375,310
Non-trainable params: 1,152
__________________________________________________________________________________________________
Epoch 1/100
1563/1563 [==============================] - 40s 26ms/step - loss: 2.0745 - accuracy: 0.2651 - val_loss: 2.0995 - val_accuracy: 0.2823
…
