Model: "functional_1"
__________________________________________________________________________________________________
Layer (type)                    Output Shape         Param #     Connected to                     
==================================================================================================
input_1 (InputLayer)            [(None, 32, 32, 3)]  0                                            
__________________________________________________________________________________________________
cropping2d_1 (Cropping2D)       (None, 16, 16, 3)    0           input_1[0][0]                    
__________________________________________________________________________________________________
conv2d (Conv2D)                 (None, 16, 16, 12)   156         input_1[0][0]                    
__________________________________________________________________________________________________
conv2d_1 (Conv2D)               (None, 16, 16, 4)    52          cropping2d_1[0][0]               
__________________________________________________________________________________________________
leaky_re_lu (LeakyReLU)         (None, 16, 16, 12)   0           conv2d[0][0]                     
__________________________________________________________________________________________________
leaky_re_lu_1 (LeakyReLU)       (None, 16, 16, 4)    0           conv2d_1[0][0]                   
__________________________________________________________________________________________________
dropout (Dropout)               (None, 16, 16, 12)   0           leaky_re_lu[0][0]                
__________________________________________________________________________________________________
dropout_1 (Dropout)             (None, 16, 16, 4)    0           leaky_re_lu_1[0][0]              
__________________________________________________________________________________________________
batch_normalization (BatchNorma (None, 16, 16, 12)   48          dropout[0][0]                    
__________________________________________________________________________________________________
batch_normalization_1 (BatchNor (None, 16, 16, 4)    16          dropout_1[0][0]                  
__________________________________________________________________________________________________
concatenate (Concatenate)       (None, 16, 16, 16)   0           batch_normalization[0][0]        
                                                                 batch_normalization_1[0][0]      
__________________________________________________________________________________________________
cropping2d_2 (Cropping2D)       (None, 8, 8, 16)     0           concatenate[0][0]                
__________________________________________________________________________________________________
conv2d_2 (Conv2D)               (None, 8, 8, 24)     1560        concatenate[0][0]                
__________________________________________________________________________________________________
conv2d_3 (Conv2D)               (None, 8, 8, 8)      520         cropping2d_2[0][0]               
__________________________________________________________________________________________________
leaky_re_lu_2 (LeakyReLU)       (None, 8, 8, 24)     0           conv2d_2[0][0]                   
__________________________________________________________________________________________________
leaky_re_lu_3 (LeakyReLU)       (None, 8, 8, 8)      0           conv2d_3[0][0]                   
__________________________________________________________________________________________________
dropout_2 (Dropout)             (None, 8, 8, 24)     0           leaky_re_lu_2[0][0]              
__________________________________________________________________________________________________
dropout_3 (Dropout)             (None, 8, 8, 8)      0           leaky_re_lu_3[0][0]              
__________________________________________________________________________________________________
batch_normalization_2 (BatchNor (None, 8, 8, 24)     96          dropout_2[0][0]                  
__________________________________________________________________________________________________
batch_normalization_3 (BatchNor (None, 8, 8, 8)      32          dropout_3[0][0]                  
__________________________________________________________________________________________________
concatenate_1 (Concatenate)     (None, 8, 8, 32)     0           batch_normalization_2[0][0]      
                                                                 batch_normalization_3[0][0]      
__________________________________________________________________________________________________
conv2d_4 (Conv2D)               (None, 4, 4, 32)     9248        concatenate_1[0][0]              
__________________________________________________________________________________________________
leaky_re_lu_4 (LeakyReLU)       (None, 4, 4, 32)     0           conv2d_4[0][0]                   
__________________________________________________________________________________________________
dropout_4 (Dropout)             (None, 4, 4, 32)     0           leaky_re_lu_4[0][0]              
__________________________________________________________________________________________________
batch_normalization_4 (BatchNor (None, 4, 4, 32)     128         dropout_4[0][0]                  
__________________________________________________________________________________________________
flatten (Flatten)               (None, 512)          0           batch_normalization_4[0][0]      
__________________________________________________________________________________________________
dense (Dense)                   (None, 256)          131328      flatten[0][0]                    
__________________________________________________________________________________________________
dropout_5 (Dropout)             (None, 256)          0           dense[0][0]                      
__________________________________________________________________________________________________
batch_normalization_5 (BatchNor (None, 256)          1024        dropout_5[0][0]                  
__________________________________________________________________________________________________
dense_1 (Dense)                 (None, 10)           2570        batch_normalization_5[0][0]      
==================================================================================================
Total params: 146,778
Trainable params: 146,106
Non-trainable params: 672
__________________________________________________________________________________________________
None
Epoch 1/100
1563/1563 [==============================] - 14s 9ms/step - loss: 2.0998 - accuracy: 0.2875 - val_loss: 1.5217 - val_accuracy: 0.4560
…
