['classifier.py', 'separable', '64']
separable
Model: "functional_1"
_________________________________________________________________
Layer (type)                 Output Shape              Param #   
=================================================================
input_1 (InputLayer)         [(None, 32, 32, 3)]       0         
_________________________________________________________________
separable_conv2d (SeparableC (None, 16, 16, 64)        283       
_________________________________________________________________
leaky_re_lu (LeakyReLU)      (None, 16, 16, 64)        0         
_________________________________________________________________
dropout (Dropout)            (None, 16, 16, 64)        0         
_________________________________________________________________
batch_normalization (BatchNo (None, 16, 16, 64)        256       
_________________________________________________________________
separable_conv2d_1 (Separabl (None, 8, 8, 128)         8896      
_________________________________________________________________
leaky_re_lu_1 (LeakyReLU)    (None, 8, 8, 128)         0         
_________________________________________________________________
dropout_1 (Dropout)          (None, 8, 8, 128)         0         
_________________________________________________________________
batch_normalization_1 (Batch (None, 8, 8, 128)         512       
_________________________________________________________________
separable_conv2d_2 (Separabl (None, 4, 4, 128)         17664     
_________________________________________________________________
leaky_re_lu_2 (LeakyReLU)    (None, 4, 4, 128)         0         
_________________________________________________________________
dropout_2 (Dropout)          (None, 4, 4, 128)         0         
_________________________________________________________________
batch_normalization_2 (Batch (None, 4, 4, 128)         512       
_________________________________________________________________
flatten (Flatten)            (None, 2048)              0         
_________________________________________________________________
dense (Dense)                (None, 256)               524544    
_________________________________________________________________
dropout_3 (Dropout)          (None, 256)               0         
_________________________________________________________________
batch_normalization_3 (Batch (None, 256)               1024      
_________________________________________________________________
dense_1 (Dense)              (None, 10)                2570      
=================================================================
Total params: 556,261
Trainable params: 555,109
Non-trainable params: 1,152
_________________________________________________________________
Epoch 1/100
1563/1563 [==============================] - 37s 23ms/step - loss: 2.0129 - accuracy: 0.3185 - val_loss: 1.4617 - val_accuracy: 0.4631
Epoch 2/100
1563/1563 [==============================] - 35s 22ms/step - loss: 1.4753 - accuracy: 0.4679 - val_loss: 1.2748 - val_accuracy: 0.5387
…
