['classifier.py', 'separable', '32']
separable
Model: "functional_1"
_________________________________________________________________
Layer (type)                 Output Shape              Param #   
=================================================================
input_1 (InputLayer)         [(None, 32, 32, 3)]       0         
_________________________________________________________________
separable_conv2d (SeparableC (None, 16, 16, 32)        155       
_________________________________________________________________
leaky_re_lu (LeakyReLU)      (None, 16, 16, 32)        0         
_________________________________________________________________
dropout (Dropout)            (None, 16, 16, 32)        0         
_________________________________________________________________
batch_normalization (BatchNo (None, 16, 16, 32)        128       
_________________________________________________________________
separable_conv2d_1 (Separabl (None, 8, 8, 64)          2400      
_________________________________________________________________
leaky_re_lu_1 (LeakyReLU)    (None, 8, 8, 64)          0         
_________________________________________________________________
dropout_1 (Dropout)          (None, 8, 8, 64)          0         
_________________________________________________________________
batch_normalization_1 (Batch (None, 8, 8, 64)          256       
_________________________________________________________________
separable_conv2d_2 (Separabl (None, 4, 4, 64)          4736      
_________________________________________________________________
leaky_re_lu_2 (LeakyReLU)    (None, 4, 4, 64)          0         
_________________________________________________________________
dropout_2 (Dropout)          (None, 4, 4, 64)          0         
_________________________________________________________________
batch_normalization_2 (Batch (None, 4, 4, 64)          256       
_________________________________________________________________
flatten (Flatten)            (None, 1024)              0         
_________________________________________________________________
dense (Dense)                (None, 256)               262400    
_________________________________________________________________
dropout_3 (Dropout)          (None, 256)               0         
_________________________________________________________________
batch_normalization_3 (Batch (None, 256)               1024      
_________________________________________________________________
dense_1 (Dense)              (None, 10)                2570      
=================================================================
Total params: 273,925
Trainable params: 273,093
Non-trainable params: 832
_________________________________________________________________
Epoch 1/100
   1/1563 [..............................] - ETA: 16:05 - loss: 3.1035 - accuracy: 0.1562
…
