['classifier.py', 'std', '8', 'focus']
std
std
Model: "functional_1"
__________________________________________________________________________________________________
Layer (type)                    Output Shape         Param #     Connected to                     
==================================================================================================
input_1 (InputLayer)            [(None, 32, 32, 3)]  0                                            
__________________________________________________________________________________________________
conv2d (Conv2D)                 (None, 16, 16, 8)    224         input_1[0][0]                    
__________________________________________________________________________________________________
leaky_re_lu (LeakyReLU)         (None, 16, 16, 8)    0           conv2d[0][0]                     
__________________________________________________________________________________________________
dropout (Dropout)               (None, 16, 16, 8)    0           leaky_re_lu[0][0]                
__________________________________________________________________________________________________
batch_normalization (BatchNorma (None, 16, 16, 8)    32          dropout[0][0]                    
__________________________________________________________________________________________________
conv2d_1 (Conv2D)               (None, 8, 8, 16)     1168        batch_normalization[0][0]        
__________________________________________________________________________________________________
leaky_re_lu_1 (LeakyReLU)       (None, 8, 8, 16)     0           conv2d_1[0][0]                   
__________________________________________________________________________________________________
dropout_1 (Dropout)             (None, 8, 8, 16)     0           leaky_re_lu_1[0][0]              
__________________________________________________________________________________________________
batch_normalization_1 (BatchNor (None, 8, 8, 16)     64          dropout_1[0][0]                  
__________________________________________________________________________________________________
conv2d_2 (Conv2D)               (None, 4, 4, 16)     2320        batch_normalization_1[0][0]      
__________________________________________________________________________________________________
leaky_re_lu_2 (LeakyReLU)       (None, 4, 4, 16)     0           conv2d_2[0][0]                   
__________________________________________________________________________________________________
dropout_2 (Dropout)             (None, 4, 4, 16)     0           leaky_re_lu_2[0][0]              
__________________________________________________________________________________________________
batch_normalization_2 (BatchNor (None, 4, 4, 16)     64          dropout_2[0][0]                  
__________________________________________________________________________________________________
dense (Dense)                   (None, 4, 4, 4)      68          batch_normalization_2[0][0]      
__________________________________________________________________________________________________
reshape_1 (Reshape)             (None, 16, 4)        0           dense[0][0]                      
__________________________________________________________________________________________________
dense_1 (Dense)                 (None, 4, 4, 16)     272         batch_normalization_2[0][0]      
__________________________________________________________________________________________________
softmax (Softmax)               (None, 16, 4)        0           reshape_1[0][0]                  
__________________________________________________________________________________________________
reshape_2 (Reshape)             (None, 16, 16)       0           dense_1[0][0]                    
__________________________________________________________________________________________________
dot (Dot)                       (None, 4, 16)        0           softmax[0][0]                    
                                                                 reshape_2[0][0]                  
__________________________________________________________________________________________________
reshape_3 (Reshape)             (None, 64)           0           dot[0][0]                        
__________________________________________________________________________________________________
flatten (Flatten)               (None, 64)           0           reshape_3[0][0]                  
__________________________________________________________________________________________________
dense_2 (Dense)                 (None, 256)          16640       flatten[0][0]                    
__________________________________________________________________________________________________
dropout_3 (Dropout)             (None, 256)          0           dense_2[0][0]                    
__________________________________________________________________________________________________
batch_normalization_4 (BatchNor (None, 256)          1024        dropout_3[0][0]                  
__________________________________________________________________________________________________
dense_3 (Dense)                 (None, 10)           2570        batch_normalization_4[0][0]      
==================================================================================================
Total params: 24,446
Trainable params: 23,854
Non-trainable params: 592
__________________________________________________________________________________________________
Epoch 1/100
1563/1563 [==============================] - 10s 6ms/step - loss: 2.1870 - accuracy: 0.2153 - val_loss: 1.8545 - val_accuracy: 0.2837
…
