…
'classifier.py', 'hierarchical', '4']
hierarchical
Model: "functional_1"
__________________________________________________________________________________________________
Layer (type)                    Output Shape         Param #     Connected to                     
==================================================================================================
input_1 (InputLayer)            [(None, 32, 32, 3)]  0                                            
__________________________________________________________________________________________________
conv2d (Conv2D)                 (None, 16, 16, 4)    112         input_1[0][0]                    
__________________________________________________________________________________________________
conv2d_1 (Conv2D)               (None, 16, 16, 4)    112         input_1[0][0]                    
__________________________________________________________________________________________________
conv2d_2 (Conv2D)               (None, 16, 16, 4)    112         input_1[0][0]                    
__________________________________________________________________________________________________
conv2d_3 (Conv2D)               (None, 16, 16, 4)    112         input_1[0][0]                    
__________________________________________________________________________________________________
conv2d_4 (Conv2D)               (None, 16, 16, 4)    112         input_1[0][0]                    
__________________________________________________________________________________________________
conv2d_5 (Conv2D)               (None, 16, 16, 4)    112         input_1[0][0]                    
__________________________________________________________________________________________________
conv2d_6 (Conv2D)               (None, 16, 16, 4)    112         input_1[0][0]                    
__________________________________________________________________________________________________
conv2d_7 (Conv2D)               (None, 16, 16, 4)    112         input_1[0][0]                    
__________________________________________________________________________________________________
leaky_re_lu (LeakyReLU)         (None, 16, 16, 4)    0           conv2d[0][0]                     
__________________________________________________________________________________________________
leaky_re_lu_1 (LeakyReLU)       (None, 16, 16, 4)    0           conv2d_1[0][0]                   
__________________________________________________________________________________________________
leaky_re_lu_2 (LeakyReLU)       (None, 16, 16, 4)    0           conv2d_2[0][0]                   
__________________________________________________________________________________________________
leaky_re_lu_3 (LeakyReLU)       (None, 16, 16, 4)    0           conv2d_3[0][0]                   
__________________________________________________________________________________________________
leaky_re_lu_4 (LeakyReLU)       (None, 16, 16, 4)    0           conv2d_4[0][0]                   
__________________________________________________________________________________________________
leaky_re_lu_5 (LeakyReLU)       (None, 16, 16, 4)    0           conv2d_5[0][0]                   
__________________________________________________________________________________________________
leaky_re_lu_6 (LeakyReLU)       (None, 16, 16, 4)    0           conv2d_6[0][0]                   
__________________________________________________________________________________________________
leaky_re_lu_7 (LeakyReLU)       (None, 16, 16, 4)    0           conv2d_7[0][0]                   
__________________________________________________________________________________________________
dropout (Dropout)               (None, 16, 16, 4)    0           leaky_re_lu[0][0]                
__________________________________________________________________________________________________
dropout_1 (Dropout)             (None, 16, 16, 4)    0           leaky_re_lu_1[0][0]              
__________________________________________________________________________________________________
dropout_2 (Dropout)             (None, 16, 16, 4)    0           leaky_re_lu_2[0][0]              
__________________________________________________________________________________________________
dropout_3 (Dropout)             (None, 16, 16, 4)    0           leaky_re_lu_3[0][0]              
__________________________________________________________________________________________________
dropout_4 (Dropout)             (None, 16, 16, 4)    0           leaky_re_lu_4[0][0]              
__________________________________________________________________________________________________
dropout_5 (Dropout)             (None, 16, 16, 4)    0           leaky_re_lu_5[0][0]              
__________________________________________________________________________________________________
dropout_6 (Dropout)             (None, 16, 16, 4)    0           leaky_re_lu_6[0][0]              
__________________________________________________________________________________________________
dropout_7 (Dropout)             (None, 16, 16, 4)    0           leaky_re_lu_7[0][0]              
__________________________________________________________________________________________________
batch_normalization (BatchNorma (None, 16, 16, 4)    16          dropout[0][0]                    
__________________________________________________________________________________________________
batch_normalization_1 (BatchNor (None, 16, 16, 4)    16          dropout_1[0][0]                  
__________________________________________________________________________________________________
batch_normalization_2 (BatchNor (None, 16, 16, 4)    16          dropout_2[0][0]                  
__________________________________________________________________________________________________
batch_normalization_3 (BatchNor (None, 16, 16, 4)    16          dropout_3[0][0]                  
__________________________________________________________________________________________________
batch_normalization_4 (BatchNor (None, 16, 16, 4)    16          dropout_4[0][0]                  
__________________________________________________________________________________________________
batch_normalization_5 (BatchNor (None, 16, 16, 4)    16          dropout_5[0][0]                  
__________________________________________________________________________________________________
batch_normalization_6 (BatchNor (None, 16, 16, 4)    16          dropout_6[0][0]                  
__________________________________________________________________________________________________
batch_normalization_7 (BatchNor (None, 16, 16, 4)    16          dropout_7[0][0]                  
__________________________________________________________________________________________________
concatenate (Concatenate)       (None, 16, 16, 8)    0           batch_normalization[0][0]        
                                                                 batch_normalization_1[0][0]      
__________________________________________________________________________________________________
concatenate_1 (Concatenate)     (None, 16, 16, 8)    0           batch_normalization_2[0][0]      
                                                                 batch_normalization_3[0][0]      
__________________________________________________________________________________________________
concatenate_2 (Concatenate)     (None, 16, 16, 8)    0           batch_normalization_4[0][0]      
                                                                 batch_normalization_5[0][0]      
__________________________________________________________________________________________________
concatenate_3 (Concatenate)     (None, 16, 16, 8)    0           batch_normalization_6[0][0]      
                                                                 batch_normalization_7[0][0]      
__________________________________________________________________________________________________
conv2d_8 (Conv2D)               (None, 8, 8, 16)     1168        concatenate[0][0]                
__________________________________________________________________________________________________
conv2d_9 (Conv2D)               (None, 8, 8, 16)     1168        concatenate_1[0][0]              
__________________________________________________________________________________________________
conv2d_10 (Conv2D)              (None, 8, 8, 16)     1168        concatenate_2[0][0]              
__________________________________________________________________________________________________
conv2d_11 (Conv2D)              (None, 8, 8, 16)     1168        concatenate_3[0][0]              
__________________________________________________________________________________________________
leaky_re_lu_8 (LeakyReLU)       (None, 8, 8, 16)     0           conv2d_8[0][0]                   
__________________________________________________________________________________________________
leaky_re_lu_9 (LeakyReLU)       (None, 8, 8, 16)     0           conv2d_9[0][0]                   
__________________________________________________________________________________________________
leaky_re_lu_10 (LeakyReLU)      (None, 8, 8, 16)     0           conv2d_10[0][0]                  
__________________________________________________________________________________________________
leaky_re_lu_11 (LeakyReLU)      (None, 8, 8, 16)     0           conv2d_11[0][0]                  
__________________________________________________________________________________________________
dropout_8 (Dropout)             (None, 8, 8, 16)     0           leaky_re_lu_8[0][0]              
__________________________________________________________________________________________________
dropout_9 (Dropout)             (None, 8, 8, 16)     0           leaky_re_lu_9[0][0]              
__________________________________________________________________________________________________
dropout_10 (Dropout)            (None, 8, 8, 16)     0           leaky_re_lu_10[0][0]             
__________________________________________________________________________________________________
dropout_11 (Dropout)            (None, 8, 8, 16)     0           leaky_re_lu_11[0][0]             
__________________________________________________________________________________________________
batch_normalization_8 (BatchNor (None, 8, 8, 16)     64          dropout_8[0][0]                  
__________________________________________________________________________________________________
batch_normalization_9 (BatchNor (None, 8, 8, 16)     64          dropout_9[0][0]                  
__________________________________________________________________________________________________
batch_normalization_10 (BatchNo (None, 8, 8, 16)     64          dropout_10[0][0]                 
__________________________________________________________________________________________________
batch_normalization_11 (BatchNo (None, 8, 8, 16)     64          dropout_11[0][0]                 
__________________________________________________________________________________________________
concatenate_4 (Concatenate)     (None, 8, 8, 32)     0           batch_normalization_8[0][0]      
                                                                 batch_normalization_9[0][0]      
__________________________________________________________________________________________________
concatenate_5 (Concatenate)     (None, 8, 8, 32)     0           batch_normalization_10[0][0]     
                                                                 batch_normalization_11[0][0]     
__________________________________________________________________________________________________
conv2d_12 (Conv2D)              (None, 4, 4, 32)     9248        concatenate_4[0][0]              
__________________________________________________________________________________________________
conv2d_13 (Conv2D)              (None, 4, 4, 32)     9248        concatenate_5[0][0]              
__________________________________________________________________________________________________
leaky_re_lu_12 (LeakyReLU)      (None, 4, 4, 32)     0           conv2d_12[0][0]                  
__________________________________________________________________________________________________
leaky_re_lu_13 (LeakyReLU)      (None, 4, 4, 32)     0           conv2d_13[0][0]                  
__________________________________________________________________________________________________
dropout_12 (Dropout)            (None, 4, 4, 32)     0           leaky_re_lu_12[0][0]             
__________________________________________________________________________________________________
dropout_13 (Dropout)            (None, 4, 4, 32)     0           leaky_re_lu_13[0][0]             
__________________________________________________________________________________________________
batch_normalization_12 (BatchNo (None, 4, 4, 32)     128         dropout_12[0][0]                 
__________________________________________________________________________________________________
batch_normalization_13 (BatchNo (None, 4, 4, 32)     128         dropout_13[0][0]                 
__________________________________________________________________________________________________
concatenate_6 (Concatenate)     (None, 4, 4, 64)     0           batch_normalization_12[0][0]     
                                                                 batch_normalization_13[0][0]     
__________________________________________________________________________________________________
flatten (Flatten)               (None, 1024)         0           concatenate_6[0][0]              
__________________________________________________________________________________________________
dense (Dense)                   (None, 256)          262400      flatten[0][0]                    
__________________________________________________________________________________________________
dropout_14 (Dropout)            (None, 256)          0           dense[0][0]                      
__________________________________________________________________________________________________
batch_normalization_14 (BatchNo (None, 256)          1024        dropout_14[0][0]                 
__________________________________________________________________________________________________
dense_1 (Dense)                 (None, 10)           2570        batch_normalization_14[0][0]     
==================================================================================================
Total params: 290,698
Trainable params: 289,866
Non-trainable params: 832
__________________________________________________________________________________________________
Epoch 1/100
1563/1563 [==============================] - 26s 17ms/step - loss: 2.0440 - accuracy: 0.3133 - val_loss: 1.4369 - val_accuracy: 0.4751
…
