Model: "functional_1"
_________________________________________________________________
Layer (type)                 Output Shape              Param #   
=================================================================
input_1 (InputLayer)         [(None, 32, 32, 3)]       0         
_________________________________________________________________
separable_conv2d (SeparableC (None, 16, 16, 8)         59        
_________________________________________________________________
leaky_re_lu (LeakyReLU)      (None, 16, 16, 8)         0         
_________________________________________________________________
dropout (Dropout)            (None, 16, 16, 8)         0         
_________________________________________________________________
batch_normalization (BatchNo (None, 16, 16, 8)         32        
_________________________________________________________________
separable_conv2d_1 (Separabl (None, 8, 8, 16)          216       
_________________________________________________________________
leaky_re_lu_1 (LeakyReLU)    (None, 8, 8, 16)          0         
_________________________________________________________________
dropout_1 (Dropout)          (None, 8, 8, 16)          0         
_________________________________________________________________
batch_normalization_1 (Batch (None, 8, 8, 16)          64        
_________________________________________________________________
separable_conv2d_2 (Separabl (None, 4, 4, 16)          416       
_________________________________________________________________
leaky_re_lu_2 (LeakyReLU)    (None, 4, 4, 16)          0         
_________________________________________________________________
dropout_2 (Dropout)          (None, 4, 4, 16)          0         
_________________________________________________________________
batch_normalization_2 (Batch (None, 4, 4, 16)          64        
_________________________________________________________________
flatten (Flatten)            (None, 256)               0         
_________________________________________________________________
dense (Dense)                (None, 256)               65792     
_________________________________________________________________
dropout_3 (Dropout)          (None, 256)               0         
_________________________________________________________________
batch_normalization_3 (Batch (None, 256)               1024      
_________________________________________________________________
dense_1 (Dense)              (None, 10)                2570      
=================================================================
Total params: 70,237
Trainable params: 69,645
Non-trainable params: 592
_________________________________________________________________
Epoch 1/100
1563/1563 [==============================] - 15s 10ms/step - loss: 2.2810 - accuracy: 0.2197 - val_loss: 1.6940 - val_accuracy: 0.3873
Epoch 2/100
1563/1563 [==============================] - 14s 9ms/step - loss: 1.7605 - accuracy: 0.3618 - val_loss: 1.6068 - val_accuracy: 0.4258
…
