Model: "functional_1"
_________________________________________________________________
Layer (type)                 Output Shape              Param #   
=================================================================
input_1 (InputLayer)         [(None, 32, 32, 3)]       0         
_________________________________________________________________
separable_conv2d (SeparableC (None, 16, 16, 16)        91        
_________________________________________________________________
leaky_re_lu (LeakyReLU)      (None, 16, 16, 16)        0         
_________________________________________________________________
dropout (Dropout)            (None, 16, 16, 16)        0         
_________________________________________________________________
batch_normalization (BatchNo (None, 16, 16, 16)        64        
_________________________________________________________________
separable_conv2d_1 (Separabl (None, 8, 8, 32)          688       
_________________________________________________________________
leaky_re_lu_1 (LeakyReLU)    (None, 8, 8, 32)          0         
_________________________________________________________________
dropout_1 (Dropout)          (None, 8, 8, 32)          0         
_________________________________________________________________
batch_normalization_1 (Batch (None, 8, 8, 32)          128       
_________________________________________________________________
separable_conv2d_2 (Separabl (None, 4, 4, 32)          1344      
_________________________________________________________________
leaky_re_lu_2 (LeakyReLU)    (None, 4, 4, 32)          0         
_________________________________________________________________
dropout_2 (Dropout)          (None, 4, 4, 32)          0         
_________________________________________________________________
batch_normalization_2 (Batch (None, 4, 4, 32)          128       
_________________________________________________________________
flatten (Flatten)            (None, 512)               0         
_________________________________________________________________
dense (Dense)                (None, 256)               131328    
_________________________________________________________________
dropout_3 (Dropout)          (None, 256)               0         
_________________________________________________________________
batch_normalization_3 (Batch (None, 256)               1024      
_________________________________________________________________
dense_1 (Dense)              (None, 10)                2570      
=================================================================
Total params: 137,365
Trainable params: 136,693
Non-trainable params: 672
_________________________________________________________________
Epoch 1/100
1563/1563 [==============================] - 18s 12ms/step - loss: 2.1704 - accuracy: 0.2652 - val_loss: 1.5567 - val_accuracy: 0.4474
Epoch 2/100
1563/1563 [==============================] - 18s 12ms/step - loss: 1.6676 - accuracy: 0.4034 - val_loss: 1.4315 - val_accuracy: 0.4801
…
