Model: "functional_1"
_________________________________________________________________
Layer (type)                 Output Shape              Param #   
=================================================================
input_1 (InputLayer)         [(None, 32, 32, 3)]       0         
_________________________________________________________________
conv2d (Conv2D)              (None, 16, 16, 64)        1792      
_________________________________________________________________
leaky_re_lu (LeakyReLU)      (None, 16, 16, 64)        0         
_________________________________________________________________
dropout (Dropout)            (None, 16, 16, 64)        0         
_________________________________________________________________
batch_normalization (BatchNo (None, 16, 16, 64)        256       
_________________________________________________________________
conv2d_1 (Conv2D)            (None, 8, 8, 128)         73856     
_________________________________________________________________
leaky_re_lu_1 (LeakyReLU)    (None, 8, 8, 128)         0         
_________________________________________________________________
dropout_1 (Dropout)          (None, 8, 8, 128)         0         
_________________________________________________________________
batch_normalization_1 (Batch (None, 8, 8, 128)         512       
_________________________________________________________________
conv2d_2 (Conv2D)            (None, 4, 4, 128)         147584    
_________________________________________________________________
leaky_re_lu_2 (LeakyReLU)    (None, 4, 4, 128)         0         
_________________________________________________________________
dropout_2 (Dropout)          (None, 4, 4, 128)         0         
_________________________________________________________________
batch_normalization_2 (Batch (None, 4, 4, 128)         512       
_________________________________________________________________
flatten (Flatten)            (None, 2048)              0         
_________________________________________________________________
dense (Dense)                (None, 256)               524544    
_________________________________________________________________
dropout_3 (Dropout)          (None, 256)               0         
_________________________________________________________________
batch_normalization_3 (Batch (None, 256)               1024      
_________________________________________________________________
dense_1 (Dense)              (None, 10)                2570      
=================================================================
Total params: 752,650
Trainable params: 751,498
Non-trainable params: 1,152
_________________________________________________________________
None
1563/1563 [==============================] - 37s 24ms/step - loss: 1.9858 - accuracy: 0.3287 - val_loss: 1.5734 - val_accuracy: 0.4527
1563/1563 [==============================] - 36s 23ms/step - loss: 1.3893 - accuracy: 0.5017 - val_loss: 1.3264 - val_accuracy: 0.5307
…
