Model: "functional_1"
_________________________________________________________________
Layer (type)                 Output Shape              Param #   
=================================================================
input_1 (InputLayer)         [(None, 32, 32, 3)]       0         
_________________________________________________________________
conv2d (Conv2D)              (None, 16, 16, 8)         224       
_________________________________________________________________
leaky_re_lu (LeakyReLU)      (None, 16, 16, 8)         0         
_________________________________________________________________
dropout (Dropout)            (None, 16, 16, 8)         0         
_________________________________________________________________
batch_normalization (BatchNo (None, 16, 16, 8)         32        
_________________________________________________________________
conv2d_1 (Conv2D)            (None, 8, 8, 16)          1168      
_________________________________________________________________
leaky_re_lu_1 (LeakyReLU)    (None, 8, 8, 16)          0         
_________________________________________________________________
dropout_1 (Dropout)          (None, 8, 8, 16)          0         
_________________________________________________________________
batch_normalization_1 (Batch (None, 8, 8, 16)          64        
_________________________________________________________________
conv2d_2 (Conv2D)            (None, 4, 4, 16)          2320      
_________________________________________________________________
leaky_re_lu_2 (LeakyReLU)    (None, 4, 4, 16)          0         
_________________________________________________________________
dropout_2 (Dropout)          (None, 4, 4, 16)          0         
_________________________________________________________________
batch_normalization_2 (Batch (None, 4, 4, 16)          64        
_________________________________________________________________
flatten (Flatten)            (None, 256)               0         
_________________________________________________________________
dense (Dense)                (None, 256)               65792     
_________________________________________________________________
dropout_3 (Dropout)          (None, 256)               0         
_________________________________________________________________
batch_normalization_3 (Batch (None, 256)               1024      
_________________________________________________________________
dense_1 (Dense)              (None, 10)                2570      
=================================================================
Total params: 73,258
Trainable params: 72,666
Non-trainable params: 592
_________________________________________________________________
None
1563/1563 [==============================] - 10s 7ms/step - loss: 2.1258 - accuracy: 0.2739 - val_loss: 1.7557 - val_accuracy: 0.3939
1563/1563 [==============================] - 9s 6ms/step - loss: 1.6174 - accuracy: 0.4175 - val_loss: 1.5399 - val_accuracy: 0.4414
…
