Model: "functional_1"
_________________________________________________________________
Layer (type)                 Output Shape              Param #   
=================================================================
input_1 (InputLayer)         [(None, 32, 32, 3)]       0         
_________________________________________________________________
conv2d (Conv2D)              (None, 16, 16, 16)        448       
_________________________________________________________________
leaky_re_lu (LeakyReLU)      (None, 16, 16, 16)        0         
_________________________________________________________________
dropout (Dropout)            (None, 16, 16, 16)        0         
_________________________________________________________________
batch_normalization (BatchNo (None, 16, 16, 16)        64        
_________________________________________________________________
conv2d_1 (Conv2D)            (None, 8, 8, 32)          4640      
_________________________________________________________________
leaky_re_lu_1 (LeakyReLU)    (None, 8, 8, 32)          0         
_________________________________________________________________
dropout_1 (Dropout)          (None, 8, 8, 32)          0         
_________________________________________________________________
batch_normalization_1 (Batch (None, 8, 8, 32)          128       
_________________________________________________________________
conv2d_2 (Conv2D)            (None, 4, 4, 32)          9248      
_________________________________________________________________
leaky_re_lu_2 (LeakyReLU)    (None, 4, 4, 32)          0         
_________________________________________________________________
dropout_2 (Dropout)          (None, 4, 4, 32)          0         
_________________________________________________________________
batch_normalization_2 (Batch (None, 4, 4, 32)          128       
_________________________________________________________________
flatten (Flatten)            (None, 512)               0         
_________________________________________________________________
dense (Dense)                (None, 256)               131328    
_________________________________________________________________
dropout_3 (Dropout)          (None, 256)               0         
_________________________________________________________________
batch_normalization_3 (Batch (None, 256)               1024      
_________________________________________________________________
dense_1 (Dense)              (None, 10)                2570      
=================================================================
Total params: 149,578
Trainable params: 148,906
Non-trainable params: 672
_________________________________________________________________
None
1563/1563 [==============================] - 13s 8ms/step - loss: 2.0620 - accuracy: 0.3019 - val_loss: 1.5729 - val_accuracy: 0.4378
1563/1563 [==============================] - 13s 8ms/step - loss: 1.5173 - accuracy: 0.4505 - val_loss: 1.3589 - val_accuracy: 0.5105
…
