Model: "functional_1"
_________________________________________________________________
Layer (type)                 Output Shape              Param #   
=================================================================
input_1 (InputLayer)         [(None, 32, 32, 3)]       0         
_________________________________________________________________
conv2d (Conv2D)              (None, 16, 16, 32)        896       
_________________________________________________________________
leaky_re_lu (LeakyReLU)      (None, 16, 16, 32)        0         
_________________________________________________________________
dropout (Dropout)            (None, 16, 16, 32)        0         
_________________________________________________________________
batch_normalization (BatchNo (None, 16, 16, 32)        128       
_________________________________________________________________
conv2d_1 (Conv2D)            (None, 8, 8, 64)          18496     
_________________________________________________________________
leaky_re_lu_1 (LeakyReLU)    (None, 8, 8, 64)          0         
_________________________________________________________________
dropout_1 (Dropout)          (None, 8, 8, 64)          0         
_________________________________________________________________
batch_normalization_1 (Batch (None, 8, 8, 64)          256       
_________________________________________________________________
conv2d_2 (Conv2D)            (None, 4, 4, 64)          36928     
_________________________________________________________________
leaky_re_lu_2 (LeakyReLU)    (None, 4, 4, 64)          0         
_________________________________________________________________
dropout_2 (Dropout)          (None, 4, 4, 64)          0         
_________________________________________________________________
batch_normalization_2 (Batch (None, 4, 4, 64)          256       
_________________________________________________________________
flatten (Flatten)            (None, 1024)              0         
_________________________________________________________________
dense (Dense)                (None, 256)               262400    
_________________________________________________________________
dropout_3 (Dropout)          (None, 256)               0         
_________________________________________________________________
batch_normalization_3 (Batch (None, 256)               1024      
_________________________________________________________________
dense_1 (Dense)              (None, 10)                2570      
=================================================================
Total params: 322,954
Trainable params: 322,122
Non-trainable params: 832
_________________________________________________________________
None
1563/1563 [==============================] - 18s 12ms/step - loss: 2.0120 - accuracy: 0.3146 - val_loss: 1.4938 - val_accuracy: 0.4620
1563/1563 [==============================] - 17s 11ms/step - loss: 1.4516 - accuracy: 0.4750 - val_loss: 1.2876 - val_accuracy: 0.5405
…
