Model: "functional_1"
_________________________________________________________________
Layer (type)                 Output Shape              Param #   
=================================================================
input_1 (InputLayer)         [(None, 32, 32, 3)]       0         
_________________________________________________________________
conv2d (Conv2D)              (None, 11, 11, 128)       9728      
_________________________________________________________________
leaky_re_lu (LeakyReLU)      (None, 11, 11, 128)       0         
_________________________________________________________________
dropout (Dropout)            (None, 11, 11, 128)       0         
_________________________________________________________________
batch_normalization (BatchNo (None, 11, 11, 128)       512       
_________________________________________________________________
conv2d_1 (Conv2D)            (None, 4, 4, 128)         409728    
_________________________________________________________________
leaky_re_lu_1 (LeakyReLU)    (None, 4, 4, 128)         0         
_________________________________________________________________
dropout_1 (Dropout)          (None, 4, 4, 128)         0         
_________________________________________________________________
batch_normalization_1 (Batch (None, 4, 4, 128)         512       
_________________________________________________________________
flatten (Flatten)            (None, 2048)              0         
_________________________________________________________________
dense (Dense)                (None, 256)               524544    
_________________________________________________________________
dropout_2 (Dropout)          (None, 256)               0         
_________________________________________________________________
batch_normalization_2 (Batch (None, 256)               1024      
_________________________________________________________________
dense_1 (Dense)              (None, 10)                2570      
=================================================================
Total params: 948,618
Trainable params: 947,594
Non-trainable params: 1,024
_________________________________________________________________
Epoch 1/100
1563/1563 [==============================] - 32s 20ms/step - loss: 1.9834 - accuracy: 0.3266 - val_loss: 1.4099 - val_accuracy: 0.4864
Epoch 2/100
1563/1563 [==============================] - 30s 19ms/step - loss: 1.4704 - accuracy: 0.4728 - val_loss: 1.3946 - val_accuracy: 0.4942
…
