Model: "functional_1"
_________________________________________________________________
Layer (type)                 Output Shape              Param #   
=================================================================
input_1 (InputLayer)         [(None, 32, 32, 3)]       0         
_________________________________________________________________
conv2d (Conv2D)              (None, 11, 11, 64)        4864      
_________________________________________________________________
leaky_re_lu (LeakyReLU)      (None, 11, 11, 64)        0         
_________________________________________________________________
dropout (Dropout)            (None, 11, 11, 64)        0         
_________________________________________________________________
batch_normalization (BatchNo (None, 11, 11, 64)        256       
_________________________________________________________________
conv2d_1 (Conv2D)            (None, 4, 4, 64)          102464    
_________________________________________________________________
leaky_re_lu_1 (LeakyReLU)    (None, 4, 4, 64)          0         
_________________________________________________________________
dropout_1 (Dropout)          (None, 4, 4, 64)          0         
_________________________________________________________________
batch_normalization_1 (Batch (None, 4, 4, 64)          256       
_________________________________________________________________
flatten (Flatten)            (None, 1024)              0         
_________________________________________________________________
dense (Dense)                (None, 256)               262400    
_________________________________________________________________
dropout_2 (Dropout)          (None, 256)               0         
_________________________________________________________________
batch_normalization_2 (Batch (None, 256)               1024      
_________________________________________________________________
dense_1 (Dense)              (None, 10)                2570      
=================================================================
Total params: 373,834
Trainable params: 373,066
Non-trainable params: 768
_________________________________________________________________
Epoch 1/100
1563/1563 [==============================] - 16s 10ms/step - loss: 2.0179 - accuracy: 0.3145 - val_loss: 1.4748 - val_accuracy: 0.4619
Epoch 2/100
1563/1563 [==============================] - 15s 10ms/step - loss: 1.5047 - accuracy: 0.4584 - val_loss: 1.3224 - val_accuracy: 0.5225
…
